model/checkpoint.pth (torch_old, 45606 bytes, 8 tensors)

input.weight f4 [64, 37]
00000000: 581d 16be 5b32 44bc b3ee 9dbe 7c18 d33e
00000010: a6cc e13e de31 d13d 28ee 57bd 3c08 3d3e
00000020: 1340 9fbe 0334 e5be 60f6 bbbd e9b4 0abe
00000030: 3bf0 c7bd f466 81bd fcb5 d9bd b3ea 59bd
00000040: f298 003e 492b 9c3d 1734 afbd 38dc fbbd
00000050: 2d00 d2bd 9f9b 813c b9b9 483e 89fc 523e
00000060: ab4e 463e 720c 0bbe 5baa 163e 3803 bfbc
00000070: cf33 2dbd 7ed2 d73c 3ee6 0abe fd9f dabc
00000080: 4027 04be 910f cd3d 1643 ad3c 1859 9abc
00000090: db24 40bd a4ca af3d 9f60 023e 1e4a 143e
000000a0: 1e23 c53d 92e9 4ebd 0470 803e a347 eabe
000000b0: 889e 3c3c b421 00bf 62e5 eebf 9c27 443d
000000c0: ee09 5b3d 80bb 353d de4f 113d 5190 e43d
000000d0: c139 323d 6397 1b3d 2783 9a3d 5912 743d
000000e0: b9bf 00be 8a97 b8bd d413 03be 4d69 9cbc
000000f0: bb45 813d ea6f 813d 561b ccbd 5929 123d
00000100: 734a 973d 571b 553e 2c8e 903e 9633 be3c
00000110: 6cae 1a3e 41f0 c43d 55e8 b63d de64 fe3d
00000120: 2c47 9cbc 63f9 183a 1d28 8fbe 5ea3 6d3e
00000130: b36b e63d bd8b 8c3d 5bf2 c7be 5672 60be
00000140: fc44 6cbe 58fa a13e 9d56 8abc 4c7c d53d
00000150: 9ffa babc c752 18be 232e abbd 4064 ac3d
00000160: 7ce5 9e3d f276 1e3d c508 573d b972 9b3b
00000170: be42 123c 3e01 76be c922 c3bd 30cf 6cbd
00000180: 88c0 21bd a612 16bd 6f81 3bbe 0837 d0be
00000190: b5ae e73d 86de 933e 1a73 35bc c55f 70bd
000001a0: 7da1 8fbe 8cd3 bebb 805d 8fbd aa4c efbd
000001b0: a4b7 c5bd 2d53 5fbe 8bee d0bd ff55 8f3d
000001c0: 55b8 e4bc c4aa efbc 97f6 23be 79dc 82be
000001d0: db2b 923d b88f 07be 8ad1 44bd f95b 913d
000001e0: 2b2f 353e 2507 f63d 30c8 35bf 26bb 153c
000001f0: 9014 05bf 9b4a 12c0 d96b b5bd f1b7 b1bd
00000200: 7331 2dbe 638c d7bd 6a69 40be 93b5 8fbd
00000210: 700e 66bd 225b b1bc cf1d 2f3e 84b0 383e
00000220: fd1b 38ba 106a 0c3e 9c2b 9a3d fa61 35bd
00000230: 3a9d 353e bdd4 36bc caf4 a33d c422 16be
00000240: 1e51 363e 27b5 50be 5b92 ccbb 025f 45bd
00000250: 847a 5dbd 0aae 97be 5042 59be 62f2 6ebe
00000260: 2e67 2f3d 248f bb39 da43 e8bd 0bc1 2cbe
00000270: eaf9 e83e 5ca7 6b3e 5aca 0f3d d42d 82bd
00000280: f195 aebe a6ae 25bd df0c e7be 7a75 16be
00000290: d46a eebd 500c 0bbe 8e8a a13c f26f cabe
000002a0: 6ad5 afbd d5a1 8cbe 3a21 1ebc fc57 fe3d
000002b0: 180f 133e f8f9 2e3d 0599 97be 82bd 473e
000002c0: ae60 0ebe dd97 bd3e 40a0 98bd a0d9 59bc
000002d0: 2f58 cfbd 04ed 2b3e 1842 ad3e 01e0 c43d
000002e0: 1dd6 c13c a6f3 13bc 5683 f1bc d2d8 573d
000002f0: 2a4a 8bbe 546c 0b3e 5636 cbba 3c35 863e
00000300: 15a1 a2be 57ac 9b3d 08fc 19bf b3a7 1cbd
00000310: acb3 5ebe 7e2f ed3d 542e 5abe 11bd a1be
00000320: 0c95 873c ad58 b93d d440 cdbd f9a3 bcbe
00000330: ce29 1b3d f591 333d 35d6 20be 567b d23e
00000340: 8c4d 15be da00 61be 3a9a d0bd 99d6 8ebd
00000350: a5bb 803e 97bd 1fbe f90b 1a3d 6a76 9f3d
00000360: cb7a 89be 3c2b 6cbd e6ce 83be 4178 7abf
00000370: cc30 1a3d 10bd 833c 0550 933e 800b bb3c
00000380: 44d9 cd3c c6cd 02bf 5fd2 b1bf 05ee f6bd
00000390: 478a d2bd d58a 6d3d 9953 3ebd 3fd9 4a3e
000003a0: 7561 da3c 0533 a23d dba8 533e 6e58 b7bd
000003b0: e4cf e23d a27d 68bd 2e38 3abe 8e85 353e
000003c0: ff78 bbbc 6934 293e 441e 4bbe 5be0 523d
000003d0: 0923 f03d b3d9 b3bc b8a6 95bc f59d 11be
000003e0: 8ff4 813d f1c7 be3d d7b0 5cbe d931 b83e
000003f0: ac7b c23d 3d4c 21be 7f20 babd d67a 5a3c
-0.14659631 -0.011974896 -0.30846176 0.41229618 0.44101447 0.102145895 -0.052717358 0.18460172
-0.31103572 -0.44766244 -0.09177852 -0.13545574 -0.09762617 -0.06318465 -0.10630414 -0.053202342
0.12558344 0.076254435 -0.08554857 -0.12297863 -0.1025394 0.015821276 0.19602098 0.20604147
0.19365947 -0.13578966 0.14713423 -0.023316965 -0.042285737 0.026345488 -0.13564393 -0.026687616
-0.12905598 0.10012735 0.021150153 -0.018841311 -0.046910148 0.085835725 0.1273217 0.14481398
0.09625839 -0.05051572 0.2508546 -0.4575778 0.011512406 -0.50051427 -1.8663752 0.047889337
0.053476267 0.044368267 0.035476558 0.11160339 0.04351211 0.03798617 0.075445466 0.05958781
-0.12573136 -0.09013279 -0.12800533 -0.01909318 0.06312128 0.06320174 -0.099661514 0.035683963
0.07387247 0.2081121 0.2823347 0.023217957 0.15105599 0.09616137 0.089310326 0.12421583
-0.019076906 0.00058355014 -0.27960292 0.23206851 0.11251011 0.068625905 -0.3905209 -0.21918616
-0.2307319 0.3163631 -0.016887004 0.10424098 -0.022824584 -0.14875327 -0.08358409 0.08417559
0.077586144 0.038687654 0.052498598 0.0047439006 0.008927045 -0.24023911 -0.09528119 -0.057814777
-0.039490253 -0.03663888 -0.18311094 -0.40666986 0.113126196 0.2888071 -0.011074806 -0.058685083
-0.28052893 -0.005823558 -0.070002556 -0.116845444 -0.09654167 -0.21809073 -0.102017485 0.06998824
-0.027919928 -0.029256232 -0.16012035 -0.25558832 0.07137271 -0.13238418 -0.048051395 0.070976205
0.17693774 0.120130815 -0.71008587 0.009138858 -0.519845 -2.2858036 -0.08858461 -0.08677662
-0.16913395 -0.105248235 -0.18790212 -0.070170544 -0.056166112 -0.0216499 0.17101215 0.18036085
-0.00070232135 0.13712335 0.07527849 -0.04428289 0.17735758 -0.011159119 0.08005674 -0.146617
0.17804381 -0.20381604 -0.006243033 -0.04818631 -0.054071918 -0.2962497 -0.21216702 -0.23334649
0.04282301 0.00035774068 -0.11341067 -0.16870515 0.4550317 0.23013061 0.035105087 -0.06356397
-0.3409877 -0.04044976 -0.45127007 -0.14693251 -0.116414696 -0.13578916 0.019719388 -0.39538532
-0.085856274 -0.27467218 -0.0096514765 0.124191254 0.14361227 0.042718858 -0.29608932 0.19505885
-0.13904068 0.37029925 -0.0745244 -0.013296515 -0.101242416 0.16789633 0.33839488 0.09613038
0.023661667 -0.009030258 -0.029481571 0.05269701 -0.2720502 0.13615543 -0.0015503864 0.2621249
-0.3176352 0.076012306 -0.60150194 -0.038245868 -0.21748227 0.11581324 -0.21306735 -0.3158956
0.016550563 0.09050117 -0.100221306 -0.3684385 0.037881665 0.043840367 -0.15706713 0.41109723
-0.14580363 -0.21972981 -0.101856664 -0.06974525 0.2514316 -0.15599667 0.037609074 0.077862576
-0.26851496 -0.05765842 -0.25743788 -0.9783974 0.037644193 0.016081363 0.28771988 0.022832632
0.025128014 -0.51095235 -1.3892325 -0.120571174 -0.102802806 0.05799373 -0.046466444 0.19809435
0.0266578 0.079198875 0.20669882 -0.089524135 0.11074808 -0.056760438 -0.18185493 0.17726728
-0.022884844 0.16523899 -0.19835764 0.051483493 0.117254324 -0.021954393 -0.018267974 -0.14220412
0.06345474 0.093154795 -0.21551834 0.3597553 0.09496245 -0.15751739 -0.090882294 0.01333495

input.bias f4 [64]
00000000: dec2 a73d 1dfe 2f3d a8e4 33be 92b4 94bd
00000010: 9950 ac3d 4187 b5bb 995b 7ebd c697 203e
00000020: dd8c 463c 87c8 39be 03ff d33d 81fa 5d3e
00000030: 84a8 e03d 8565 623d 2895 32bd 7245 b8bd
00000040: 1b9c 883b c20a 0fbe 1318 65bd b802 64be
00000050: 3b7b 8bbc aff4 1cbd d278 9e3c 2c81 68bd
00000060: 2524 febd c42f 5f3e 23df 83bd a3a3 05be
00000070: 284d 323e b8b5 f93d 63b7 a8bd 4fcd 48be
00000080: 45a0 533e bd22 863c 7e28 1cbe 1878 f53d
00000090: 7fb4 86bd 8989 2b3d b60c 133d c982 11be
000000a0: 04a3 fdbd 25f4 8e3d eeb9 11be e7d5 d83d
000000b0: 7be1 93bd 35d3 1abe a41f 7bbc 5f80 2ebe
000000c0: 6d05 17be 4a02 edbc b999 aabd 5538 273e
000000d0: 35cb 843d 4dff 953c 9d26 22be feb1 8fbd
000000e0: c318 bb3d 638d d8bc 6f72 83bc 487d 8dbd
000000f0: cc06 603c c44a 1b3c 23e9 903b a52c c6bc
0.08191465 0.04296695 -0.17567694 -0.072610036 0.0841381 -0.005539805 -0.062099073 0.15682897
0.012118545 -0.18142901 0.10351374 0.21677591 0.10969642 0.055272598 -0.043599278 -0.08997621
0.004169 -0.13968948 -0.055931162 -0.22266662 -0.017026534 -0.038319286 0.019344721 -0.056763813
-0.12409238 0.21795565 -0.06439044 -0.13050704 0.17412245 0.12192863 -0.08238103 -0.19609569
0.20666607 0.016373986 -0.15249822 0.11985797 -0.06577396 0.04187921 0.035900794 -0.14210047
-0.123846084 0.069801606 -0.14231083 0.10587674 -0.07220741 -0.15119632 -0.015327368 -0.17041157
-0.14748164 -0.028931756 -0.083301015 0.16330083 0.06484071 0.018310213 -0.15835042 -0.07016371
0.09135582 -0.026434606 -0.016045777 -0.06908661 0.0136734955 0.009478275 0.0044223233 -0.02419121

hidden_layers.hidden_0.weight f4 [64, 64]
00000000: 8606 27bd 386f d1be a252 9a3d 41e7 fe3e
00000010: 3400 6f3d 63ce 5a3e 8fae 8c3e 8143 2ebe
00000020: b6d5 acbe b553 16bc 73a2 24be 97cf 2dbe
00000030: cc8b e13d f1f2 64bd 7c6a 97be c05f 79be
00000040: ffaf 85bd 6741 0bbe b38e a4bc bc9c afbd
00000050: 8054 92be 19eb c5be d030 383e 8032 41be
00000060: 3bac 83be 984c 9cbe 775e b5bd 5311 df3d
00000070: 6be6 c73d dd47 5a3c abee 31be 9a61 7dbd
00000080: e9a3 cdbd 3160 7f3e 1432 fdbc bf16 cf3c
00000090: 26f1 af3c 5b8b 073e cb5f 8b3e 7af5 81bc
000000a0: 5735 1f3d 6631 c8be d4d5 b93d e444 c7be
000000b0: 715e fd3d ce3d 4dbe bdce acbe d572 ae3d
000000c0: 5cd9 92be 8556 d7bd 620e 9fbb b7f3 07bb
000000d0: e99b acbe 4486 5abe 6815 8bbe 1d18 a7be
000000e0: ec8d a9be faad 023e addb 143c 1457 b3bd
000000f0: 9360 1ebe 381f 20bc b248 adbd f779 193e
00000100: 64d6 853c 4cc6 5a3e cd8b 48be d90b db3e
00000110: 57d1 183d 4bba b53d 1873 dd3d b5f5 633e
00000120: 83c2 80bd 637f 353e bb01 cbbc 13e2 8a3e
00000130: 462f e8bd 006a a03d e806 27be c6ff 28be
00000140: 8337 173e 0ea1 5f3d e2c1 043e afb8 4dbe
00000150: 062a af3d 8743 bebd 0f42 97bc edc8 3abe
00000160: a3e3 adbc b56a e33c 32d1 6f3d 4cff c3bd
00000170: 97a3 243e c1db 12be 3cc2 bd3d fbf8 0fbe
00000180: 38fd ecbd 5e2f 4c3d d739 233d 79a7 c0bd
00000190: 15e1 a63c 3c2e 2e3c 5dff 2b3e 9cd7 a4bd
000001a0: 50e3 aabd 8ecb 383e 4faa 4abc 88b6 4fbd
000001b0: c0a1 2fbc fcbe 24be 85db 9abd 4759 90be
000001c0: c15c d0bc 1e4f f3bb 6f69 a2bc bb71 5e3e
000001d0: 9444 24bd ebf0 2a3c 82b7 b73d 309c a33d
000001e0: a66a 2fbe 5d0b 00bd ce03 7e3e 5615 83bd
000001f0: 9d01 1ebe 89e8 a1bc 7b7c 35bd 55a0 2ebe
00000200: a7f8 4ebe 599e 8dbe 37fd 4a3e 2bb8 24be
00000210: 06a7 0ebd 8913 ce3c b156 223e f05e 2ebc
00000220: af9f 23bd c95a 163e 90e6 f83c 9029 8e3d
00000230: f6e3 aabe 9d0d 583e 51f1 a93d b6ff 44bc
00000240: 0857 7b3c 5f2b 953d 7b6d 773d 4422 a23c
00000250: c82b f4bd 5072 493e f2f3 6bbe 2d5c ffbc
00000260: 5946 793e 5a37 f43d 6834 bcbe 87d9 fd3a
00000270: 0448 b6bd 0019 ef3d 2cf2 2ebd 5b12 863d
00000280: 7c19 e03d 342f 6ebd 930d 583d f56a 113e
00000290: 17be ddbd df42 f73d 2050 673e aac8 b13c
000002a0: 777f 5c3d 7d01 2fbe 1a53 883a 746c 48be
000002b0: 4843 513d 098e 9dbd c4a3 133e 788a 84be
000002c0: 16bc f23c c203 a4bd 284a 98bd f545 cd3d
000002d0: 96e5 92be a9ad be3e d49b 87be 8ec5 c5bc
000002e0: aa00 ecbd 8237 bfbe 45fa c23d 4b97 dbbd
000002f0: 7eeb 223e 903c aa3c 1253 ddbc ac5d 5e3c
00000300: 7325 5d3e ea6b 50bd dc7d 203e 29bd cdbe
00000310: 77ab 06be fc25 babb 311d bc3d c8a0 34bf
00000320: c58c 1dbd c292 75bd ed08 523b 242a 42be
00000330: ccca 1f3e 6adb 123e 0936 633d c01b 30bd
00000340: 6d20 093e b816 edbd e38d 023d c540 e13c
00000350: 1e4d 703d 9df8 51bd 2459 2ebe bdfb dd3e
00000360: f555 af3d 2c15 aabe dc2b 8bbc 16a1 173c
00000370: 7c5e b2bc a436 32be 1f44 3a3c 9b48 b03d
00000380: 1cda 293c 5286 afbd 3a44 5ebd 2ea3 1e3a
00000390: 3602 293c c213 88bd e04b 91be da98 adbd
000003a0: e7dd 12be 0aa2 9abd b5fa bcbd 8e54 893d
000003b0: f5e8 a73d 42de 5c3c 25b1 943d c973 d63c
000003c0: 005e 153b 49c5 84bd df33 05bf 141d f0bd
000003d0: ca8d 0c3e 35f8 6a3d 5f13 833d abd7 d23d
000003e0: 0c65 b1bd cd09 6c3d ad31 9ebe ed0f f83c
000003f0: ad91 dabe 9084 a1be 700a f8bd 5a1f 503e
-0.040777706 -0.40905166 0.07535292 0.49785808 0.058349803 0.21367793 0.27476928 -0.17017938
-0.33756799 -0.009175231 -0.16077594 -0.1697372 0.11012992 -0.05589575 -0.2957343 -0.24352932
-0.06527709 -0.13599168 -0.020087576 -0.085748166 -0.28580093 -0.38655928 0.1798737 -0.1886692
-0.2571734 -0.30527186 -0.08855908 0.10891976 0.097607456 0.013322798 -0.17376201 -0.06186066
-0.10041029 0.24939038 -0.030907668 0.0252794 0.021477293 0.13236754 0.27221522 -0.015864123
0.03886923 -0.39100188 0.090739876 -0.38919747 0.12371529 -0.20043108 -0.3375148 0.08517996
-0.28681457 -0.10514549 -0.0048540095 -0.002074463 -0.337127 -0.21340281 -0.2716477 -0.32635584
-0.3311609 0.1276168 0.009085578 -0.08756843 -0.15466528 -0.009773068 -0.08461131 0.14987932
0.016337581 0.21364707 -0.1958458 0.42782477 0.037309017 0.08873423 0.10812968 0.22261699
-0.062871 0.17724375 -0.024781099 0.27125606 -0.11337142 0.07832718 -0.16311228 -0.1650382
0.1476727 0.054596953 0.12964585 -0.20089982 0.08552937 -0.092902236 -0.018464116 -0.1824071
-0.02122671 0.027760843 0.058549114 -0.095701784 0.1607803 -0.14341642 0.09265563 -0.14059822
-0.11571735 0.04984986 0.039850082 -0.09406943 0.020371 0.01063114 0.16796632 -0.08048937
-0.08344138 0.180464 -0.012369706 -0.050711185 -0.010719717 -0.1608848 -0.07561401 -0.28193113
-0.025434854 -0.007425203 -0.019825665 0.21723072 -0.040104464 0.010433416 0.08970548 0.07988775
-0.17130527 -0.031260837 0.24806139 -0.06400554 -0.15430303 -0.019764202 -0.044308167 -0.1705335
-0.20212041 -0.27659872 0.19823156 -0.1608588 -0.034827255 0.0251558 0.15853383 -0.010642752
-0.039947208 0.1468307 0.030383378 0.06941521 -0.33377045 0.21098943 0.082979806 -0.012023857
0.015340574 0.07283663 0.060407143 0.01979173 -0.11922413 0.19672513 -0.23042277 -0.031171883
0.24343242 0.1192462 -0.36758733 0.0019367196 -0.08900455 0.1167469 -0.04271142 0.0654647
0.10942361 -0.058150485 0.05274732 0.14200957 -0.108272724 0.120733015 0.22589159 0.02170213
0.053832497 -0.17090411 0.0010400743 -0.19572622 0.051089555 -0.07693107 0.1441794 -0.25886893
0.029630702 -0.08008529 -0.07436019 0.10023109 -0.28690785 0.37241867 -0.26486075 -0.024142053
-0.11523564 -0.37347037 0.095203914 -0.10722216 0.15910146 0.020780832 -0.02701715 0.013572138
0.21596317 -0.050884165 0.15673012 -0.4018338 -0.13151346 -0.0056807976 0.09185255 -0.7055783
-0.038464326 -0.059954412 0.0032048777 -0.18961388 0.15604705 0.14341512 0.055471454 -0.042995214
0.13391276 -0.11576599 0.031873595 0.027496705 0.058667295 -0.051262487 -0.17026192 0.43356124
0.08561317 -0.33219278 -0.016988687 0.0092547145 -0.02177357 -0.17403656 0.01136878 0.086075984
0.010366943 -0.085705414 -0.054264285 0.00060515373 0.010315469 -0.066443935 -0.283782 -0.0847642
-0.14342462 -0.07550438 -0.09227506 0.06705581 0.0819873 0.013480725 0.0726035 0.026178258
0.0022791624 -0.06482942 -0.52032274 -0.11724296 0.13725963 0.057365615 0.06400179 0.10295042
-0.08661851 0.057626534 -0.30897275 0.030281032 -0.42689267 -0.3154645 -0.12111366 0.2032446

hidden_layers.hidden_0.bias f4 [64]
00000000: 36d2 dfbc 44cd 1c3c d91d 383d c79f 403e
00000010: ca3e 503e bbd8 a7bd df28 0fbe 34f3 933d
00000020: 3d40 053d ec5c 0c3e a682 a93b ae30 0b3e
00000030: aa0d b63c 842b 023d 5490 d8bd 5f9e 5d3e
00000040: c2e1 b03d 9427 d2bd b926 293d a86b 1bbd
00000050: d8b7 533e 0d81 073d f157 983c 7841 58be
00000060: 0920 82bd d165 6cbe 6686 babc c063 77bd
00000070: 80de 1dbd f8db 5a3e c97f 593e 8696 3abd
00000080: 4cb5 24bd 8e3c 9d3d 5aee 7abd ebc7 b23b
00000090: 95bb 1fbd 592d f5bc e21d 76bd 4ef3 1b3b
000000a0: fb50 133c 1e9d 19bc 8660 bf3d a4c9 f4bb
000000b0: 9c1e 1abb 5756 efbd 292f 17be 1665 57be
000000c0: 156e 943d d6a5 96bc f9ba cbbd acd5 6d3e
000000d0: 1304 2cbe a0d4 2cbe 8b8b c33c 9462 aabd
000000e0: 0d8f 1ebe 6558 bcbd fc68 2d3e ae6c 993d
000000f0: 0d94 303e 4cfd 003e 33ac b63d 503d 5dbd
-0.027321916 0.0095704235 0.04495034 0.1881095 0.20336452 -0.08195635 -0.13980435 0.07224122
0.032531966 0.13707322 0.005173045 0.13592789 0.022223312 0.03177978 -0.105744034 0.21642445
0.0863681 -0.10261455 0.041296694 -0.037944466 0.206756 0.033082057 0.018596621 -0.21118724
-0.063537665 -0.23085715 -0.022769164 -0.060397863 -0.03854227 0.21372974 0.21240152 -0.045553707
-0.04021196 0.076775655 -0.061262466 0.005455961 -0.03899725 -0.02992885 -0.060087092 0.0023796144
0.008991475 -0.009375839 0.09344582 -0.0074703265 -0.002351678 -0.1168639 -0.14764084 -0.21034655
0.07247559 -0.018389624 -0.099477716 0.2322604 -0.16798429 -0.16877985 0.02387025 -0.083195835
-0.15484257 -0.091965474 0.1693458 0.07491432 0.17243977 0.12596625 0.08919563 -0.05401355

hidden_layers.hidden_1.weight f4 [64, 64]
00000000: a4ca 933c 3da2 12bd cf35 183e d112 aabd
00000010: a17c c33c 3f58 803e cbb9 f33d cab9 7c3d
00000020: 9d8d aa3e d4e1 043e d75a 7abe 4ce2 cc3d
00000030: 9777 9ebd e23a fc3d 3050 1cbd dd86 6bbd
00000040: b1a6 e7be e40b 693e f778 e53d 0cba e3bd
00000050: d53e 08bd 5bab be3d fa1b ae3b bc57 37be
00000060: 3e35 7dbd 05f9 2ebe 5a0c 94bd 4be0 463d
00000070: 5259 fc3d 5c7b cbbd 1d42 a2be c9fd 803e
00000080: 2152 a03e b55b dc3d 6bc3 213c edd7 f33c
00000090: 9dd3 373e f0bd e0be c610 f43d bc14 83be
000000a0: a793 41be bb97 8dbd a9fe 3d3e 50c9 263e
000000b0: 99c0 053d 0e97 27be d9fa cfbd b28c db3d
000000c0: 2125 60bd 84c3 6e3d 4b49 adbe 9f2e 5f3e
000000d0: 9b01 a33d bfa7 5bbe b9a7 10be 7eb6 cb3d
000000e0: dff9 c93d 16c4 6b3e ca66 c63d 20f5 c2be
000000f0: 552a 283e e759 8fbd f44d 84be 1781 c23e
00000100: 2bea c33d ccd7 12be 1ef1 0b3e 59e7 1c3d
00000110: efce 1ebd a93d 9e3e d492 793c e461 f83c
00000120: fe6d 473d 6835 843c 3e03 de3d a530 813e
00000130: 7055 fabd 1438 7b3d 1b40 70bc a0c6 f23d
00000140: 8b36 07bf 2970 94bd 74f3 45be b440 593d
00000150: b215 01ba 7121 6d3e 102a a2bc 850f 8b3e
00000160: 205c 8d3d 1086 20be f846 283e d420 493e
00000170: 963d efbd e105 a83d 5818 ce3d c3d5 e23d
00000180: d99d af3d 2168 6dbe 3ad4 b03d 5916 4e3a
00000190: 201e 67ba ba7e 9cbc ac78 2e3e 54d9 7c3d
000001a0: 3a1f 8a3d cfa5 b23d 258e 73bd 8d09 0e3e
000001b0: f499 34be 37a1 3fbe 2caf 043e b924 c5bd
000001c0: 5158 7b3d 6a8f 533c 3b82 36be 170b dbbd
000001d0: eee0 3abe bd0f ce3d 2847 0e3e 008a cc3d
000001e0: b2dc d13d 5a2d 6c3d 02aa 4d3e d734 09be
000001f0: 998a 47bd e625 68be 2e04 f1bd dc8b 3a3e
00000200: 508a 803e ea81 5dbd e9ba 153e 800b f73c
00000210: 74c3 6cbe 6c67 313c aa5d cf3d b1c7 203e
00000220: 8cd7 643d ab20 183e 470b d3be 42f3 91bc
00000230: a412 1e3e 3103 e63d be7b 89bd 1292 b63d
00000240: cea8 83be 3eeb aa3e cf0a f1be aca0 573d
00000250: ca6f cb3c 0deb 013e e6bc b2bd 139a 4ebe
00000260: 4e15 ef3d b923 c9bd a23c abbe 510d 95be
00000270: f772 96bd efa0 443e 4862 b8bd aa41 3cbe
00000280: 55b5 dfbc 5d2d 29bf a6fc 253e 290f 063e
00000290: 8dd1 323c 4de3 51be 7c42 2bbe 3014 dabe
000002a0: f32f 6bbc 4c60 e03d 4811 963d 80ff 853e
000002b0: 58c7 8bbe a42b 853d f9ae bb3d ea4d cc3d
000002c0: 0935 2cbe acc8 e0be 1019 01be 8878 8cbd
000002d0: 515f e83b 712f 273e c35d 33be a9b3 153e
000002e0: 5b1c b9bd 1114 fd3d 28dc 763d 3071 80be
000002f0: 3db1 9dbd 854d 233e 64c4 09bf 959a 933d
00000300: 90b0 8a3d 995c 3d3e 3e4b 1fbe 5b79 37be
00000310: 0aaf 923c 31b1 873e 02f4 8bbd 9c7b f8bc
00000320: 0ef0 92bc cbbb 903e b8c7 5e3e b1d8 f13d
00000330: fbc1 053e 76f3 6dbc 00be 723d 709b f0be
00000340: 2fce adb9 9f1a 06bd 0668 313e 6e76 b93e
00000350: a182 f13d 3cf7 0f3d bf7b 1dbe a8da e03e
00000360: 733e 97be 7d8e 9d3c 3413 4b3e 7d11 473e
00000370: 5140 ff3d bef8 bbbd 58ac d43c b1f7 81bc
00000380: e036 56bb 1eb3 e5bd b460 2cbe 3334 52be
00000390: a07e 16be 1652 063e aeb3 4b3e d815 123e
000003a0: 9f8c d2be 3327 60be 0704 203e c516 d93a
000003b0: 2e87 e13c 9972 0abe 714e 163e 27fd 403c
000003c0: 52a9 e5bd 537a 72be 6c0e a83e ea80 243e
000003d0: 8e9b fc3d a73c a53d c996 cbbb eba1 863e
000003e0: 91fb 8cbe 8601 eebe 405b 4fbe 00a8 9d3c
000003f0: 08a7 1fbe 2353 3fbe 1666 2ebd 3966 d23d
0.018040963 -0.035799254 0.14864276 -0.0830437 0.023863139 0.25067326 0.119006716 0.06170062
0.33311167 0.12976772 -0.24448715 0.100041 -0.07737654 0.123159185 -0.03816241 -0.057501663
-0.45244363 0.22758442 0.11204713 -0.1111947 -0.033263046 0.09310027 0.0053133937 -0.17904562
-0.061818354 -0.17087181 -0.072289184 0.048553746 0.12321724 -0.09935638 -0.31691065 0.25193623
0.3131266 0.10759679 0.009873251 0.029766047 0.17951818 -0.4389491 0.11917262 -0.25601757
-0.18903981 -0.06913706 0.18554176 0.16287732 0.03265438 -0.16366217 -0.10155267 0.10720195
-0.05472291 0.058291927 -0.3384498 0.21795128 0.079592906 -0.21450709 -0.14126481 0.09946917
0.09862112 0.2302402 0.09687574 -0.3807764 0.16422398 -0.069995694 -0.25840724 0.37989113
0.09566148 -0.14340132 0.13666198 0.038306568 -0.038771566 0.30906418 0.01523276 0.030320115
0.04868888 0.016138747 0.10840462 0.25232425 -0.12223327 0.061332777 -0.014663721 0.11854291
-0.528176 -0.07247955 -0.19331151 0.05304022 -0.00049241923 0.23157288 -0.019795448 0.27160278
0.06902337 -0.15676141 0.16433322 0.19641429 -0.116816685 0.08204246 0.10063237 0.11075928
0.08575029 -0.23184253 0.08634229 0.00078616064 -0.00088164397 -0.019103397 0.1703822 0.061730698
0.06744237 0.08723032 -0.05946173 0.13870831 -0.17636853 -0.18713842 0.12957448 -0.09626145
0.061363522 0.012912611 -0.17823116 -0.106954746 -0.18249866 0.100615956 0.13894331 0.09987259
0.102471724 0.057660438 0.20084384 -0.13399063 -0.04871616 -0.22670707 -0.11768375 0.18217415
0.25105524 -0.054078974 0.14622082 0.03015685 -0.23121434 0.01082788 0.10125287 0.15701176
0.055869624 0.14856212 -0.4121954 -0.01781619 0.15436798 0.112310775 -0.06713055 0.089145795
-0.25714725 0.333826 -0.4707856 0.052643463 0.024833579 0.12687321 -0.08727436 -0.20175962
0.116739854 -0.09821267 -0.33444697 -0.29111722 -0.073461466 0.19202016 -0.09003121 -0.18384424
-0.027308146 -0.66084844 0.16209659 0.1309172 0.010914219 -0.20496865 -0.1672458 -0.42593527
-0.014354694 0.10955867 0.07327515 0.26171494 -0.27300525 0.065024644 0.09164233 0.099757984
-0.16817106 -0.439031 -0.12607217 -0.06858927 0.0070914407 0.16326691 -0.17516236 0.14619316
-0.090386115 0.12357343 0.06026855 -0.25086355 -0.07699821 0.1594754 -0.53815293 0.072072186
0.06771958 0.18492354 -0.15556046 -0.17917387 0.01790573 0.26502374 -0.0683365 -0.030332379
-0.017936733 0.28268275 0.21755874 0.11808909 0.13062279 -0.014523378 0.05926323 -0.4699359
-0.0003315075 -0.03274023 0.17324838 0.36223167 0.117924936 0.03514789 -0.15379237 0.4391682
-0.29539832 0.019232983 0.19831544 0.19440265 0.12463439 -0.09178303 0.025961086 -0.015865179
-0.0032686517 -0.112158045 -0.16833764 -0.20527725 -0.14696741 0.13117251 0.19892761 0.14266145
-0.4112291 -0.21889953 0.15626536 0.0016562572 0.027530279 -0.13520278 0.1467836 0.011779106
-0.11213936 -0.23679475 0.32823503 0.16064802 0.12334357 0.08068209 -0.0062130434 0.2629541
-0.2753568 -0.46485537 -0.20249653 0.019245148 -0.15591061 -0.18684058 -0.042577825 0.10273404

hidden_layers.hidden_1.bias f4 [64]
00000000: b332 cc3c 3a89 ea3e 1d01 863e c591 d4bd
00000010: 43c7 5cbe ddd5 a2bd 90a4 9cbe 20c0 0c3f
00000020: 87a7 873b 2e51 243f 59b5 a13e d028 af3e
00000030: 8fcc 0a3f cb80 543e 8767 a3bd a4a6 b1bd
00000040: deeb 39be 5612 1d3e 756a 253e dd8f 293f
00000050: a1a4 a23e 4130 043f 8cca d73d 42b3 f7bd
00000060: 1626 96be 4f5b 3abc 731c 18bd 0b2c fc3d
00000070: d028 f73e 64e6 093f 2581 36be 524a aebe
00000080: 975c 2cbe 12b4 1a3d 9c91 213f 35cc f63d
00000090: 8e7b 9bbe 746b b23e 0e14 903e b674 e3bd
000000a0: a44a 95bd 5337 4f3e efe7 72be ebda d4bb
000000b0: 35aa 433d b39e b53e 2ede 8dbe d729 1c3e
000000c0: 3735 e3bd 9a7c a43e 7865 1fbd b846 203e
000000d0: dd3c 9fbd d738 8d3d 8a85 823e 00fc b4bd
000000e0: 7e7e 9f3e 0167 ebbd e2a9 2c3f 1b56 813d
000000f0: 868e 46be ad43 003f e548 d1bd 199c 4bbe
0.024926519 0.4580782 0.26172724 -0.10379366 -0.21560387 -0.079509474 -0.305943 0.5498066
0.004139844 0.6418637 0.3158367 0.34210825 0.5421838 0.20752256 -0.07978731 -0.08674362
-0.18156382 0.15339026 0.16153891 0.6623514 0.31766227 0.5163613 0.105366796 -0.120947376
-0.29325932 -0.011374309 -0.037136506 0.12313088 0.48273325 0.53867173 -0.17822702 -0.34041077
-0.16832195 0.037769385 0.6311281 0.12050668 -0.30367702 0.34847605 0.281403 -0.11106245
-0.07289627 0.20235948 -0.23721288 -0.0064958236 0.047769744 0.3547264 -0.27708572 0.15250336
-0.11094134 0.32126313 -0.038915128 0.15651977 -0.077752806 0.06895607 0.25492507 -0.08837128
0.31151193 -0.11494256 0.6744672 0.063152514 -0.19390306 0.50103265 -0.10218982 -0.19883765

output.weight f4 [4, 64]
00000000: 5a1d 553e 4343 193e 87a7 8f3e 72fb 8d3c
00000010: c799 ebbd 2ebc ce3b f2af 88be c794 4c3e
00000020: 459d 11bd 46ec 813e c622 253e e9ea 2b3e
00000030: 6dcc 563e 1fde 983e d191 1dbe dbcf 7cbd
00000040: 7a25 bcbc 207a a03d 15a4 c93e 981d 563e
00000050: f069 1e3e ff69 2e3e 6958 35be b81c 7abe
00000060: a2df 74be ba60 5c3b ebb5 a8bc 57bb 973d
00000070: b204 653e c237 5d3e 5c89 593e 8895 40be
00000080: 66ca 97bd f126 c83e ed59 913e 122e 033e
00000090: 72d4 0ebe b62a 113e 7eb0 823d 6c5e 283e
000000a0: b152 4a3e ce47 973d 35ce 96be c547 4ebf
000000b0: e318 873d 7320 583e ae97 bfbe efaa 473e
000000c0: 4b20 7f3d aef7 783e f48d 2f3d d004 5f3e
000000d0: 6218 013e cf31 a33d 5ba4 843e 05e1 84bd
000000e0: f794 c93e 138e 103e c0d3 593e 8a8e bbbc
000000f0: 366b 77bd 6ac5 493e 1178 04bd dc06 13be
00000100: 2c2e 1c3e 0ad5 333e eb0d 2c3e f1e3 9c3d
00000110: 24b5 4ebd 6c0d 6dbe f6e7 85be f82d 783e
00000120: 89d7 5b3e 1532 433e 7680 4d3e 9faf 623e
00000130: 7b97 463e 5399 b03e bfd5 2f3e f610 953e
00000140: 573c 893d 6076 19bd d08c 553e 8007 863e
00000150: 7a64 603e 18ca 583e a01b 5a3e 2b9b acbe
00000160: 9b79 59be a3eb 2a3e 4e6a 173e b311 b23e
00000170: cfc7 653e 44ff 6e3e 79e6 f33e 1cc1 3cbe
00000180: 36c9 d23d b1d7 b83e 29a0 0f3e 90d6 173e
00000190: 7058 2abe 336b 293e 3ece 7d3e a3b8 463e
000001a0: d7cc df3d 06ca 763d badb b1be 7864 2f3e
000001b0: d7d9 5e3e a650 5d3e f9e6 80be fe8c 7a3e
000001c0: 71ea 6e3e 63d7 0e3e ef72 6fbd 30f0 c83e
000001d0: 8078 123e 8863 623e 64d3 843d a96b e9bd
000001e0: 944b 913e 64b1 90be be16 403e 379c d93d
000001f0: 0a93 8bbe 7997 3e3e 9e44 1cbd 543b 06bd
00000200: e195 253d b284 0b3e 3b69 1c3e 0a2a 7bbd
00000210: 25d0 debd d9f2 a8be c910 44be 0712 023e
00000220: 0a92 d7be bd74 9d3e b4ca 083e 8dee 803e
00000230: f874 c73e 6350 f73e 9f18 f23d abb7 af3e
00000240: 5289 64bd 8bbf 913e 03f4 b23d 8323 8a3e
00000250: 1669 503e d2d2 223e 19f1 64bc 8978 a83e
00000260: ebc0 98be 3162 e23e 19b1 3bbe baae 633e
00000270: 0226 053e e685 423e e618 8cbe b787 50be
00000280: 17a3 9a3e 3e4b 2fbd 008d 5b3e df94 203e
00000290: 8a86 06be b25d a13d 3790 053e 7315 f3be
000002a0: a92c 11bf 0420 763e dca3 53be 3842 913e
000002b0: 0d3e 983e 050a 7a3e b8ee fcbe 87ce 21bd
000002c0: c8f5 863e c4cb 263e 7dc7 40bc d422 a23e
000002d0: 7415 f73b 9255 a93e 485b 64bd 84ba 713e
000002e0: 63d8 4b3e 8a57 1cbd 26bb 3a3e 2683 a13e
000002f0: b1bc 55be b970 f53d c967 a2bd 2826 9a3d
00000300: c4c5 823e 230d 983e f04c 983e ab01 dc3e
00000310: b41b 97be 0d53 9fbe fedd ebbe 87cc 8d3e
00000320: bc7d 283e a7af 953e 0347 2b3e 3352 553e
00000330: c58a d43d 4e64 433e eab5 eabd 93fa bfbe
00000340: 0c0e a6bd beca 023f 782f 793d 0f93 483e
00000350: d1c5 123e 6437 5b3e e631 273e 6ca6 06be
00000360: cbe7 9bbe d7c8 073f 1c6a 7cbe a7cf acbe
00000370: fa51 cf3d 344c 043e b1a4 e03e 66b4 94be
00000380: d3cc 02be 7e94 043f d980 9a3e ed1a 2e3d
00000390: 8bfa 7dbc 9b19 013e fe4d c83d 6020 54ba
000003a0: 29c8 863d a514 a23e c647 39be d221 703e
000003b0: d91b 07bf 0cf7 543e 6601 c1bd f9e7 843e
000003c0: 1df6 a03e ac96 a83d 5634 933b a3cf 383e
000003d0: c2e1 eebe 06b4 af3c 39d6 a53d dbc2 933d
000003e0: d38d 443e 0095 33be 94a0 903e e7f1 293e
000003f0: c414 d03d 1827 3e3e d468 2bbc 519d 75be
0.20811978 0.14967065 0.280575 0.017331813 -0.1150394 0.006309054 -0.26696736 0.19978629
-0.035550375 0.25375575 0.16126546 0.1678883 0.2097642 0.29856965 -0.15387656 -0.061721664
-0.022967089 0.078357935 0.39382997 0.20909727 0.154701 0.17032622 -0.17709507 -0.24425018
-0.23913434 0.003362699 -0.020594558 0.07408779 0.22365072 0.21603301 0.21243805 -0.18807042
-0.07411651 0.3909221 0.2838892 0.12810543 -0.13948229 0.14176449 0.063813195 0.16442269
0.19758107 0.073867425 -0.29454198 -0.8057826 0.06596544 0.21106128 -0.3742041 0.194988
0.062286656 0.24313232 0.042859986 0.2177918 0.12606958 0.079684846 0.25906643 -0.064882316
0.39371464 0.14116697 0.21272182 -0.022895116 -0.06040498 0.19704214 -0.032341067 -0.14358085
0.15251988 0.17561737 0.16802184 0.07660664 -0.050465718 -0.23149651 -0.26153535 0.24236286
0.21468939 0.19062074 0.20068535 0.22137307 0.19393723 0.34491977 0.17171381 0.29114503
0.06700962 -0.037466407 0.20854497 0.26177597 0.21913329 0.21170843 0.212996 -0.33712134
-0.21237795 0.16691451 0.14786646 0.34779128 0.22439502 0.23339564 0.47636774 -0.1843304
0.10292284 0.3610206 0.1402594 0.14827943 -0.16635299 0.165448 0.24785706 0.19406371
0.10927742 0.06025126 -0.3473795 0.1712817 0.21762787 0.21612796 -0.25176218 0.24467847
0.2333162 0.13949351 -0.05845922 0.3924575 0.1430378 0.2210828 0.06485632 -0.11397488
0.28377974 -0.28260338 0.18758675 0.10625499 -0.2726062 0.1861247 -0.038151376 -0.032771423
0.04042614 0.13624838 0.15274517 -0.06131939 -0.10879544 -0.32997778 -0.19147028 0.1270219
-0.42103606 0.30753127 0.13358575 0.25182 0.38956428 0.48303518 0.11821102 0.34319815
-0.05579502 0.28466448 0.08737948 0.26980218 0.20352587 0.15900734 -0.013973498 0.3290446
-0.29834685 0.4421554 -0.18329276 0.22234622 0.1300278 0.1899639 -0.27362746 -0.20364271
0.30202553 -0.042796366 0.21440506 0.1568179 -0.1313726 0.07879199 0.13043295 -0.47477302
-0.5670877 0.2403565 -0.20667976 0.28370833 0.2973484 0.24417885 -0.49400878 -0.0395036
0.2635939 0.16288668 -0.011766312 0.31667197 0.007540399 0.33073097 -0.055751115 0.23606306
0.19906764 -0.03816942 0.18235454 0.3154537 -0.20872761 0.11984391 -0.07929952 0.07526809
0.25541508 0.29697523 0.297462 0.42970023 -0.29513323 -0.3111805 -0.46067804 0.27695104
0.16454214 0.29235575 0.16726308 0.20832138 0.10378031 0.19081232 -0.114604786 -0.3749586
-0.08108148 0.5109061 0.060836285 0.19587348 0.14333273 0.21407849 0.16327628 -0.13149422
-0.30450282 0.5304083 -0.24649853 -0.33752176 0.10123058 0.12919694 0.4387565 -0.29043883
-0.12773447 0.5178908 0.30176428 0.042506147 -0.015501629 0.12607424 0.09780501 -0.00080919825
0.06581146 0.31656376 -0.18093786 0.23450401 -0.5277687 0.20797366 -0.09424095 0.2595823
0.3143777 0.082318634 0.004492323 0.18047957 -0.46656615 0.021448147 0.080975 0.072149
0.19194727 -0.17537308 0.2824751 0.16596185 0.10160211 0.185696 -0.010462005 -0.23985793

output.bias f4 [4]
00000000: 95e8 bf3e 2160 a53e 98aa b03e 4fc7 8b3e
0.37482134 0.32299903 0.34505153 0.27300498
